Found 8012 validated image filenames belonging to 7 classes.
Found 2003 validated image filenames belonging to 7 classes.
_________________________________________________________________
Layer (type)                 Output Shape              Param #   
=================================================================
conv2d_1 (Conv2D)            (None, 90, 120, 128)      4736      
_________________________________________________________________
max_pooling2d_1 (MaxPooling2 (None, 45, 60, 128)       0         
_________________________________________________________________
conv2d_2 (Conv2D)            (None, 43, 57, 128)       196736    
_________________________________________________________________
max_pooling2d_2 (MaxPooling2 (None, 14, 19, 128)       0         
_________________________________________________________________
dropout_1 (Dropout)          (None, 14, 19, 128)       0         
_________________________________________________________________
conv2d_3 (Conv2D)            (None, 12, 16, 256)       393472    
_________________________________________________________________
max_pooling2d_3 (MaxPooling2 (None, 2, 3, 256)         0         
_________________________________________________________________
flatten_1 (Flatten)          (None, 1536)              0         
_________________________________________________________________
dense_1 (Dense)              (None, 512)               786944    
_________________________________________________________________
dropout_2 (Dropout)          (None, 512)               0         
_________________________________________________________________
dense_2 (Dense)              (None, 7)                 3591      
=================================================================
Total params: 1,385,479
Trainable params: 1,385,479
Non-trainable params: 0
_________________________________________________________________
None
Epoch 1/10

 1/93 [..............................] - ETA: 18:07 - loss: 1.7393 - acc: 0.7422 - categorical_accuracy: 0.7422
 2/93 [..............................] - ETA: 13:36 - loss: 1.1775 - acc: 0.8125 - categorical_accuracy: 0.8125
…
